…
&lt;li&gt;Deep learning algorithms with CNN is expected to work well with text classification&lt;/li&gt;
&lt;li&gt;
&lt;p&gt;CNN with and complied using loss = ‘categorical_crossentropy’ , optimizer = adam , metrics = accuracy
Model: &lt;/p&gt;
&lt;div class=&quot;gatsby-highlight&quot; data-language=&quot;text&quot;&gt;&lt;pre class=&quot;language-text&quot;&gt;&lt;code class=&quot;language-text&quot;&gt;_________________________________________________________________
Layer (type)                 Output Shape              Param #   
=================================================================
embedding_1 (Embedding)      (None, 157, 500)          54695500  
_________________________________________________________________
conv1d_1 (Conv1D)            (None, 157, 128)          192128    
_________________________________________________________________
conv1d_2 (Conv1D)            (None, 157, 64)           24640     
_________________________________________________________________
conv1d_3 (Conv1D)            (None, 157, 32)           4128      
_________________________________________________________________
conv1d_4 (Conv1D)            (None, 157, 16)           1040      
_________________________________________________________________
flatten_1 (Flatten)          (None, 2512)              0         
_________________________________________________________________
dropout_1 (Dropout)          (None, 2512)              0         
_________________________________________________________________
dense_1 (Dense)              (None, 100)               251300    
_________________________________________________________________
dropout_2 (Dropout)          (None, 100)               0         
_________________________________________________________________
dense_2 (Dense)              (None, 7)                 707       
=================================================================
Total params: 55,169,443
Trainable params: 55,169,443
Non* trainable params: 0&lt;/code&gt;&lt;/pre&gt;&lt;/div&gt;
&lt;p&gt;&lt;code class=&quot;language-text&quot;&gt;trained the model which produced Accuracy: 84.063542, Loss: 45.061589. Which is less the ML models.&lt;/code&gt;&lt;/p&gt;
&lt;/li&gt;
&lt;/ul&gt;
&lt;p&gt;&lt;span
…
&lt;p&gt;CNN with and complied using loss = ‘categorical_crossentropy’ , optimizer = adam , metrics = accuracy&lt;/p&gt;
&lt;div class=&quot;gatsby-highlight&quot; data-language=&quot;text&quot;&gt;&lt;pre class=&quot;language-text&quot;&gt;&lt;code class=&quot;language-text&quot;&gt;Layer (type)                    Output Shape         Param #     Connected to                     
==================================================================================================
input_1 (InputLayer)            [(None, 157)]        0                                            
__________________________________________________________________________________________________
embedding (Embedding)           (None, 157, 500)     54695500    input_1[0][0]                    
__________________________________________________________________________________________________
bidirectional (Bidirectional)   (None, 157, 256)     644096      embedding[0][0]                  
__________________________________________________________________________________________________
conv1d (Conv1D)                 (None, 155, 64)      49216       bidirectional[0][0]              
__________________________________________________________________________________________________
global_average_pooling1d (Globa (None, 64)           0           conv1d[0][0]                     
__________________________________________________________________________________________________
global_max_pooling1d (GlobalMax (None, 64)           0           conv1d[0][0]                     
__________________________________________________________________________________________________
concatenate (Concatenate)       (None, 128)          0           global_average_pooling1d[0][0]   
                                                             global_max_pooling1d[0][0]       
__________________________________________________________________________________________________
dense (Dense)                   (None, 7)            903         concatenate[0][0]                
==================================================================================================
Total params: 55,389,715
Trainable params: 55,389,715
Non-trainable params: 0&lt;/code&gt;&lt;/pre&gt;&lt;/div&gt;
&lt;/li&gt;
&lt;/ul&gt;
&lt;p&gt;&lt;code class=&quot;language-text&quot;&gt;The Bidirectional LSTM has the highest accuracy of all the models Accuracy: 86.488497, Loss: 36.384022&lt;/code&gt;&lt;/p&gt;
…
